crashlessutah.onnx (onnx, 167972 bytes, 1 tensors)

Sc_Scancst f4 [9682, 4]
40.674324 -111.87022 11.0 1319.0 40.161293 -111.651085 17.0 1048.0
40.695797 -111.924545 17.0 1352.0 40.679974 -111.88825 21.0 448.0
40.735283 -111.821785 3.0 358.0 40.587868 -112.02761 17.0 1331.0
40.588154 -111.87812 9.0 203.0 40.72831 -111.87676 23.0 113.0
38.15986 -112.61611 11.0 356.0 41.11076 -112.045265 23.0 342.0
37.038815 -112.31031 18.0 316.0 40.43165 -111.8217 22.0 1106.0
41.049637 -111.95898 12.0 1288.0 41.711746 -112.16605 11.0 262.0
40.920055 -111.89088 10.0 750.0 41.136776 -111.919914 21.0 365.0
40.235115 -111.65689 14.0 1439.0 40.673485 -111.98695 17.0 1266.0
40.295242 -111.72551 6.0 703.0 40.74469 -112.64182 11.0 1011.0
40.823013 -111.91643 9.0 214.0 40.59863 -111.903496 15.0 35.0
40.718777 -112.05557 7.0 619.0 39.60447 -110.81874 13.0 806.0
40.89251 -111.88071 16.0 914.0 41.23697 -111.97009 12.0 25.0
39.244976 -111.09195 15.0 312.0 40.37677 -111.79535 17.0 1336.0
40.71864 -111.88823 8.0 392.0 40.61006 -111.90567 0.0 10.0
39.61976 -110.83562 20.0 42.0 41.22728 -112.01224 15.0 1008.0
41.175644 -112.104004 15.0 1376.0 40.000877 -111.484665 21.0 1050.0
40.68742 -111.87698 7.0 587.0 40.23371 -111.658554 6.0 979.0
39.533928 -112.294876 6.0 507.0 40.542034 -111.98426 19.0 421.0
40.684418 -111.936844 10.0 532.0 40.32649 -111.70951 10.0 944.0
37.2476 -113.62729 6.0 269.0 41.00083 -111.90766 14.0 884.0
40.699898 -111.901985 22.0 120.0 40.587914 -112.01467 7.0 1102.0
41.05862 -111.97467 6.0 284.0 40.510452 -111.89067 19.0 355.0
40.333694 -111.71346 7.0 489.0 40.166668 -111.60254 14.0 867.0
40.57306 -111.97716 23.0 637.0 40.29707 -111.68645 16.0 965.0
39.310818 -111.61202 9.0 873.0 40.17657 -110.16977 8.0 720.0
40.67973 -111.986305 10.0 864.0 41.112923 -112.012794 8.0 1375.0
41.44053 -112.05693 8.0 1111.0 40.681637 -111.95138 15.0 188.0
40.660732 -111.90116 8.0 1066.0 40.651222 -111.98043 17.0 1224.0
40.547607 -111.89604 5.0 833.0 40.496067 -111.841576 11.0 294.0
40.58805 -111.897385 9.0 1448.0 38.57527 -109.55077 18.0 1167.0
40.764652 -111.97099 17.0 784.0 40.642982 -111.938805 11.0 599.0
00000000: 82b2 2242 8dbd dfc2 0000 3041 00e0 a444
00000010: 2aa5 2042 5b4d dfc2 0000 8841 0000 8344
00000020: 7fc8 2242 5ed9 dfc2 0000 8841 0000 a944
00000030: 4bb8 2242 c9c6 dfc2 0000 a841 0000 e043
00000040: eef0 2242 c1a4 dfc2 0000 4040 0000 b343
00000050: fa59 2242 230e e0c2 0000 8841 0060 a644
00000060: 455a 2242 99c1 dfc2 0000 1041 0000 4b43
00000070: cae9 2242 e7c0 dfc2 0000 b841 0000 e242
00000080: b2a3 1842 733b e1c2 0000 3041 0000 b243
00000090: 6b71 2442 2d17 e0c2 0000 b841 0000 ab43
000000a0: bf27 1442 e19e e0c2 0000 9041 0000 9e43
000000b0: 02ba 2142 b6a4 dfc2 0000 b041 0040 8a44
000000c0: d432 2442 ffea dfc2 0000 4041 0000 a144
000000d0: d4d8 2642 0555 e0c2 0000 3041 0000 8343
000000e0: 23ae 2342 21c8 dfc2 0000 2041 0080 3b44
000000f0: 0f8c 2442 ffd6 dfc2 0000 a841 0080 b643
00000100: c2f0 2042 5450 dfc2 0000 6041 00e0 b344
00000110: a6b1 2242 52f9 dfc2 0000 8841 0040 9e44
00000120: 542e 2142 7673 dfc2 0000 c040 00c0 2f44
00000130: 90fa 2242 9d48 e1c2 0000 3041 00c0 7c44
00000140: c44a 2342 36d5 dfc2 0000 1041 0000 5643
00000150: ff64 2242 97ce dfc2 0000 7041 0000 0c42
00000160: 07e0 2242 741c e0c2 0000 e040 00c0 1a44
00000170: fa6a 1e42 32a3 ddc2 0000 5041 0080 4944
00000180: ee91 2342 ecc2 dfc2 0000 8041 0080 6444
00000190: a8f2 2442 b0f0 dfc2 0000 4041 0000 c841
000001a0: dbfa 1c42 142f dec2 0000 7041 0000 9c43
000001b0: d081 2142 3897 dfc2 0000 8841 0000 a744
000001c0: e3df 2242 c6c6 dfc2 0000 0041 0000 c443
000001d0: b470 2242 b4cf dfc2 0000 0000 0000 2041
000001e0: a27a 1e42 d6ab ddc2 0000 a041 0000 2842
000001f0: bce8 2442 4406 e0c2 0000 7041 0000 7c44
00000200: dcb3 2442 4035 e0c2 0000 7041 0000 ac44
00000210: e600 2042 26f8 dec2 0000 a841 0040 8344
00000220: ebbf 2242 04c1 dfc2 0000 e040 00c0 1244
00000230: 52ef 2042 2e51 dfc2 0000 c040 00c0 7444
00000240: be22 1e42 fa96 e0c2 0000 c040 0080 fd43
00000250: 0b2b 2242 f1f7 dfc2 0000 9841 0080 d243
00000260: d8bc 2242 aadf dfc2 0000 2041 0000 0544
00000270: 534e 2142 456b dfc2 0000 2041 0000 6c44
00000280: 8bfd 1442 2c41 e3c2 0000 c040 0080 8643
00000290: da00 2442 b9d0 dfc2 0000 6041 0000 5d44
000002a0: b2cc 2242 d1cd dfc2 0000 b041 0000 f042
000002b0: 065a 2242 8307 e0c2 0000 e040 00c0 8944
000002c0: 073c 2442 08f3 dfc2 0000 c040 0000 8e43
000002d0: b40a 2242 06c8 dfc2 0000 9841 0080 b143
000002e0: b455 2142 4b6d dfc2 0000 e040 0080 f443
000002f0: abaa 2042 8034 dfc2 0000 6041 00c0 5844
00000300: d04a 2242 4ef4 dfc2 0000 b841 0040 1f44
00000310: 3330 2142 765f dfc2 0000 8041 0040 7144
00000320: 473e 1d42 5b39 dfc2 0000 1041 0040 5a44
00000330: cfb4 2042 ec56 dcc2 0000 0041 0000 3444
00000340: 0bb8 2242 fdf8 dfc2 0000 2041 0000 5844
00000350: a273 2442 8d06 e0c2 0000 0041 00e0 ab44
00000360: 1ac3 2542 261d e0c2 0000 0041 00e0 8a44
00000370: ffb9 2242 1be7 dfc2 0000 7041 0000 3c43
00000380: 97a4 2242 65cd dfc2 0000 0041 0040 8544
00000390: da9a 2242 fbf5 dfc2 0000 8841 0000 9944
000003a0: c030 2242 c6ca dfc2 0000 a040 0040 5044
000003b0: f9fb 2142 e3ae dfc2 0000 3041 0000 9343
000003c0: 2a5a 2242 76cb dfc2 0000 1041 0000 b544
000003d0: 144d 1a42 ff19 dbc2 0000 9041 00e0 9144
000003e0: 010f 2342 26f1 dfc2 0000 8841 0000 4444
000003f0: 6a92 2242 abe0 dfc2 0000 3041 00c0 1544
